data/bacckup_mfcc/b_01.npy (npy, 15728 bytes, 1 tensors)

array f8 [39, 50]
000000 00 00 00 00 05 a1 07 c0 44 63 7d 08 da 34 fe bf
       -2.953622817993164 -1.887903245127931
000010 eb 43 63 5d c9 60 fa bf fb d0 58 9f 02 4b 00 c0
       -1.6486295364340957 -2.036626095674476
000020 b2 3e 34 f6 48 ed 03 c0 0b 5e 4e e1 d3 5c 04 c0
       -2.490861819714916 -2.545326004222948
000030 bc 9c 82 f7 d1 1f 02 c0 db b6 6d db 8a 53 fd bf
       -2.265537198708982 -1.8328960963657923
000040 d1 58 1f fa af 1f f7 bf c5 fa d0 58 d6 ce f7 bf
       -1.4452361841591037 -1.4879973859203102
000050 3e 34 d6 47 51 5a fb bf cb 29 78 b9 91 36 fd bf
       -1.7095501714823196 -1.8258225674531896
000060 d7 87 c6 3a ca db fc bf 68 ac 0f 0d e4 03 fb bf
       -1.8036596580427522 -1.6884499082759934
000070 00 00 00 c0 8e af fc bf 7d 68 ac 0f c5 7c fd bf
       -1.792860746383667 -1.8429613697285554
000080 8c f5 a1 51 d1 a4 01 c0 db b6 6d bb 29 dd 04 c0
       -2.2054773690749183 -2.6079897539956227
000090 d1 58 1f fa 27 de 04 c0 39 05 2f e7 97 6b 05 c0
       -2.608474687654145 -2.6775358258461464
0000a0 68 ac 0f cd 27 8a 06 c0 00 00 00 00 45 ee 09 c0
       -2.81745872692186 -3.241342544555664
0000b0 37 05 2f e7 34 af 0d c0 34 d6 87 06 71 5e 0f c0
       -3.710550123331497 -3.9211140165523606
0000c0 f5 a1 b1 9e 23 4a 10 c0 92 24 49 32 3c 9c 10 c0
       -4.072401504127346 -4.152573381151472
0000d0 e1 e5 14 9c b2 cd 10 c0 a7 e0 e5 d4 89 e2 10 c0
       -4.200876654410849 -4.221228910952198
0000e0 b7 6d db 36 9e ba 10 c0 5e 4e c1 8b e4 a4 10 c0
       -4.182244164603097 -4.161028083489866
0000f0 e1 e5 14 dc 6e a4 10 c0 34 d6 87 46 c4 7c 10 c0
       -4.160579146171103 -4.1218424816520844
000100 cc 29 78 39 7f 54 10 c0 1a eb 43 c3 30 45 10 c0
       -4.082516572913345 -4.067568827648552
000110 92 24 49 32 ad 13 10 c0 6d db b6 0d fa 18 10 c0
       -4.019215379442487 -4.024391378675188
000120 6e db b6 ad ad 37 10 c0 10 8d f5 21 6e 5e 10 c0
       -4.0543734686715265 -4.092216997730489
000130 b7 6d db 76 26 7f 10 c0 2f a7 e0 85 95 a2 10 c0
       -4.124170167105539 -4.158773509823546
000140 d1 58 1f ba 18 70 10 c0 e1 e5 14 5c fe 53 10 c0
       -4.109469326174989 -4.08202499272872
000150 92 24 49 52 e5 c2 10 c0 83 97 53 b0 52 ba 10 c0
       -4.19032791682652 -4.181956057645837
000160 3c 05 2f a7 c6 db 0f c0 07 00 00 80 60 73 08 c0
       -3.9823124943947317 -3.0563364028930695
000170 1a eb 43 e3 4c 3a 03 c0 f0 72 0a de aa df 01 c0
       -2.403466964254574 -2.234212622350576
000180 44 63 7d a8 8f ca 01 c0 00 00 00 40 98 66 03 c0
       -2.2239068187012965 -2.4250950813293457
000190 00 00 00 a0 e4 00 f2 3f 68 ac 0f ad 7f 5e f6 3f
       1.1252180337905884 1.3980709800914841
0001a0 a2 b1 3e 54 12 ac f5 3f d1 58 1f 9a 3a 09 f0 3f
       1.3545096674743964 1.0022531528862155
0001b0 69 ac 0f 2d 55 fd e6 3f 97 53 f0 92 8e ef e4 3f
       0.7184244041540185 0.6542427892587622
0001c0 b7 6d db 96 01 f4 e9 3f 4a 92 24 59 68 d0 f1 3f
       0.8110359140804836 1.1133807642119273
0001d0 f5 a1 b1 be 4b 3a f8 3f 24 49 92 84 57 c0 fb 3f
       1.5142323922137824 1.734458463532584
0001e0 2a 78 39 a5 b0 d5 fc 3f 7e 68 ac 4f f8 c9 fb 3f
       1.8021704153138765 1.7368090736622714
0001f0 4e c1 cb 29 48 2e fc 3f d6 87 c6 fa ef 5b fc 3f
       1.7612992890027104 1.7724456592481963
000200 db b6 6d 9b 9a 02 fb 3f b8 6d db f6 72 8c f9 3f
       1.6881357261112757 1.59678932598659
000210 01 00 00 40 ec 6b f7 3f 44 63 7d 28 9e 2f f4 3f
       1.4638483524322512 1.2616254407532361
000220 5a 1f 1a ab 5e 66 f1 3f e1 e5 14 dc 12 39 ef 3f
       1.0874926265405152 0.9757170008153332
000230 9d 82 97 d3 52 a2 ef 3f b7 6d db b6 3a aa ec 3f
       0.988564885392481 0.8957799502781459
000240 9f 82 97 53 85 51 e9 3f a2 b1 3e 74 d1 89 e8 3f
       0.7912012703564705 0.7668235083015598
000250 59 1f 1a 6b 5e 6b e9 3f e6 14 bc 5c 83 ee e8 3f
       0.7943565456234679 0.7791153727745523
000260 fb d0 58 9f 75 18 e8 3f 73 0a 5e 4e e8 6a e7 3f
       0.7529857742543123 0.7318002253162618
000270 25 49 92 84 c4 34 e7 3f 6e db b6 0d e1 01 e8 3f
       0.7251913632665362 0.7502293842179435
000280 9d 82 97 13 21 15 e8 3f 19 eb 43 63 9c dc e7 3f
       0.7525792486813604 0.7456800402427205
000290 63 7d 68 ac 8c 96 e8 3f 59 1f 1a 2b ef cd e8 3f
       0.7683776252123774 0.7751384584271178
0002a0 cc 29 78 19 a3 71 ea 3f 71 db b6 4d e4 26 ea 3f
       0.8263717172097187 0.817247535501208
0002b0 a7 e0 e5 74 73 2f e9 3f d6 87 c6 5a 14 39 e9 3f
       0.78704235870011 0.7882177136382278
0002c0 98 53 f0 d2 35 c5 e8 3f 94 24 49 b2 ef a4 e7 3f
       0.7740735168359718 0.7388838274138316
0002d0 4f c1 cb 89 37 c0 e6 3f c7 fa d0 18 f0 aa e6 3f
       0.7109639827086002 0.708366440266979
0002e0 ff ff ff 3f 47 ee e6 3f f1 72 0a 1e b2 93 e6 3f
       0.7165867090225219 0.705529268907041
0002f0 8c c6 fa d0 75 6d e3 3f ae 0f 8d 35 3c 53 e1 3f
       0.6071118432648333 0.5414105459135408
000300 3f 34 d6 e7 a2 37 df 3f 53 f0 72 ca 41 d9 e0 3f
       0.4877707733183491 0.5265206293183929
000310 25 49 92 24 26 d1 e1 3f 00 00 00 e0 cd c2 e1 3f
       0.5567808832441058 0.5550298094749451
000320 00 00 00 a0 0d 83 e0 bf ac 0f 8d b5 0c 93 ee bf
       -0.5159977078437805 -0.9554503961485259
000330 69 ac 0f 2d a4 1b f0 bf 98 53 f0 92 af 9c e6 bf
       -1.0067483673290332 -0.706626688947483
000340 eb 43 63 1d 73 4f e0 bf 74 0a 5e 0e 86 36 df bf
       -0.5096984456996528 -0.4877028599077342
000350 0a 5e 4e 61 95 0a e1 bf dd b6 6d 3b 37 80 eb bf
       -0.5325419331083492 -0.8594013367380416
000360 83 97 53 f0 14 a8 f2 bf 5f 4e c1 eb 47 0f f2 bf
       -1.1660355937724212 -1.1287306985076595
000370 79 39 05 ef 63 da ee bf 0b 5e 4e e1 f1 cf ec bf
       -0.964158980213866 -0.9003838921079831
000380 db b6 6d db c6 3e ed bf 35 d6 87 46 fe 59 ec bf
       -0.9139131818498883 -0.8859855058241864
000390 6d db b6 6d 5c 47 ea bf bc 9c 82 17 3e 12 ea bf
       -0.8212110655648367 -0.8147268733199762
0003a0 cd 29 78 39 ba 89 e4 bf 34 d6 87 66 a0 b8 e0 bf
       -0.6418124315690023 -0.52253742242346
0003b0 e5 14 bc 3c 5d 61 e2 bf b2 3e 34 56 00 64 e2 bf
       -0.5743852792953957 -0.5747071918176145
0003c0 37 d6 87 e6 9c 83 dd bf 4a 92 24 a9 0c 54 d3 bf
       -0.4611580134654533 -0.30200497167451046
0003d0 a6 82 97 53 c5 8f c6 bf 70 db b6 5d fb 94 c0 bf
       -0.17626253682739906 -0.12954656673329223
0003e0 af b1 3e 34 1b 54 9a bf 45 05 2f 57 7d 3c 97 bf
       -0.025711464942718084 -0.022691687055844473
0003f0 c2 fa d0 b8 d4 8b a6 bf f8 d0 58 9f 3a e9 a2 bf
       -0.04403557544764204 -0.03693564601090488
000400 93 24 49 f2 77 fb b0 bf 36 d6 87 86 f2 72 aa bf
       -0.06633710541895459 -0.051658228800004855
000410 a3 53 f0 52 58 11 a1 bf b9 6d db f6 f1 0e b1 bf
       -0.03333545696674569 -0.06663429524217336
000420 7f 68 ac 0f 93 8a ad bf 20 1a eb 43 f7 0b b0 bf
       -0.057697864211335485 -0.06268258484042422
000430 34 d6 87 86 8f 3d b1 bf 61 db b6 2d 0c 65 b2 bf
       -0.06734559091986442 -0.0718543635947362
000440 b3 0f 8d d5 cd 20 b4 bf fb 72 0a 9e 6a 44 a9 bf
       -0.07862554992340058 -0.049350101272670664
000450 4a 92 24 09 06 03 a3 bf 97 0f 8d 35 c3 ef 9d bf
       -0.03713244306189674 -0.02923493398999674
000460 c0 29 78 89 99 21 b6 bf 1a eb 43 43 d4 01 bd bf
       -0.086450191556799 -0.1133091606351794
000470 b0 24 49 d2 77 49 aa bf a6 6d db 66 17 a9 a4 bf
       -0.051341766757624696 -0.04035256510334344
000480 b2 87 c6 fa ea 42 ca bf 12 1a eb 03 af c3 e5 bf
       -0.20516717190645078 -0.680137164738712
000490 05 2f a7 00 1b a9 ec bf 59 1f 1a 4b b3 73 ed bf
       -0.8956427586321928 -0.9203735796772704
0004a0 f2 72 0a 7e 59 93 eb bf 00 00 00 00 0b 27 e8 bf
       -0.8617370092138954 -0.7547659873962402
0004b0 00 00 00 a0 7a ea e8 3f e6 14 bc 5c d2 39 ec 3f
       0.7786229252815247 0.8820583163475504
0004c0 83 97 53 b0 c5 ef ea 3f 6e db b6 0d 03 cf e8 3f
       0.841769070041423 0.7752700107438224
0004d0 10 8d f5 21 d1 e2 e6 3f 4d c1 cb 69 66 1c e8 3f
       0.7151876128449732 0.7534668032003907
0004e0 92 24 49 d2 5a 0d f0 3f 92 24 49 12 b9 79 f0 3f
       1.0032604421888078 1.0297175134931291
0004f0 4b 92 24 29 74 57 e3 3f 29 1a eb a3 6a e5 ca 3f
       0.604425506932395 0.2101262379057556
000500 44 63 7d a8 e9 08 b7 3f f1 a1 b1 1e 9a 42 c7 3f
       0.0899797474243203 0.18172003267979123
000510 6e db b6 ed 68 4f ca 3f 68 ac 0f 0d 34 6c ca 3f
       0.2055483971323286 0.20642710340266324
000520 26 49 92 84 81 63 d0 3f 77 68 ac 2f 2e 8f d8 3f
       0.25607335993221836 0.38373903899776657
000530 8d f5 a1 71 74 c1 e0 3f 8d f5 a1 f1 eb d6 e5 3f
       0.5236150950801616 0.6824855536830668
000540 4f f0 72 8a c2 f7 ed 3f 10 8d f5 e1 21 b8 f0 3f
       0.9364941314775111 1.0449541880159963
000550 2f a7 e0 65 20 b9 f0 3f 00 00 00 80 6d e8 ee 3f
       1.0451969127265774 0.9658725261688232
000560 53 c1 cb 29 35 e2 e7 3f 01 00 00 80 6e fc e2 3f
       0.7463632408453499 0.5933144092559816
000570 e7 14 bc 9c 07 d1 df 3f b6 6d db 56 12 90 db 3f
       0.4971331625568624 0.4306684349264417
000580 7f 68 ac ef 74 e5 d8 3f f5 a1 b1 7e ef 1b d9 3f
       0.38900493054973845 0.39233004925202347
000590 24 49 92 84 47 61 d9 3f 25 49 92 04 13 15 d9 3f
       0.39656246134213036 0.3919112724917276
0005a0 ce 58 1f 7a 0a a9 da 3f da b6 6d fb 1a 34 dc 3f
       0.41656743932743445 0.44068026116916104
0005b0 a7 e0 e5 f4 4c a3 dd 3f 63 7d 68 cc 73 17 de 3f
       0.4630920783597596 0.47018141710028355
0005c0 dc b6 6d 3b 28 fb dc 3f 02 00 00 e0 1c 69 dd 3f
       0.45282941630908424 0.45954057574272167
0005d0 81 97 53 30 5f 1d dd 3f b1 3e 34 56 b6 33 de 3f
       0.45491771430385347 0.4719062654339537
0005e0 db b6 6d bb 68 91 dc 3f 01 2f a7 a0 df 19 df 3f
       0.44637506774493624 0.485954195869212
0005f0 6d db b6 0d 6c 00 e1 3f 92 24 49 12 bb 11 e1 3f
       0.5313015239579336 0.533414397920881
000600 94 24 49 b2 33 bb df 3f 29 78 39 b5 e6 60 e0 3f
       0.4958008996077947 0.5118287601033035
000610 3e 63 7d 08 07 7b e4 3f 95 53 f0 d2 0e 65 e8 3f
       0.640018002111084 0.7623361701868016
000620 88 c6 fa 50 7b 4c ec 3f dc b6 6d 9b 3d bf ec 3f
       0.8843361455567029 0.8983448062624251
000630 b6 6d db f6 54 75 ed 3f 00 00 00 c0 77 d0 ed 3f
       0.9205727406910487 0.9316977262496948
000640 00 00 00 a0 53 8e d2 3f 88 c6 fa 90 ed bf c5 3f
       0.28993692994117737 0.1699196775348819
000650 92 24 49 92 86 75 c0 3f 49 92 24 29 fd 03 ba 3f
       0.12858659880501883 0.10162336592163358
000660 cd 29 78 39 cf 40 93 3f 38 34 d6 0f b6 ae 91 3f
       0.018801916010525766 0.01726803275737529
000670 34 d6 87 26 4e 52 b6 3f 01 00 00 90 dc 7c c4 3f
       0.08719337883652473 0.16006047278642657
000680 bd 24 49 92 a4 b2 98 3f fd 2e a7 e0 cc 3b cf bf
       0.024118968418666443 -0.24401246041667682
000690 2a 78 39 05 fd 93 d5 bf 6f ac 0f 6d 70 98 c8 bf
       -0.337157492734948 -0.19215207410102006
0006a0 c7 29 78 f9 ed b0 c5 bf 2c a7 e0 85 06 2f d9 bf
       -0.16946196251985965 -0.39349520753840994
0006b0 24 49 92 e4 87 b7 dc bf 5a f0 72 ca 5a db d5 bf
       -0.44870183297566 -0.3415133454361744
0006c0 b7 3e 34 56 b8 50 c2 bf 14 bc 9c 82 87 8f 8b 3f
       -0.14308838090118112 0.013457354234189402
0006d0 00 5e 4e 41 cd 35 a8 3f b6 6d db b6 34 50 b8 3f
       0.04728547498887892 0.09497384514127458
0006e0 ba 9c 82 37 34 51 c2 3f db b6 6d 3b 63 b3 c9 3f
       0.14310314856013467 0.2007869758776256
0006f0 bd 9c 82 17 c8 88 cb 3f 35 d6 87 06 ed b0 cb 3f
       0.21511174343070208 0.21633684939267686
000700 c6 fa d0 18 b0 c0 c6 3f 5e 4e c1 4b fc c1 c7 3f
       0.17775536739096348 0.18560746859531013
000710 76 39 05 2f 8c 6d ca 3f d2 58 1f 1a cc 8b c7 3f
       0.20646812721174584 0.1839537742186566
000720 fe ff ff 3f d8 49 c3 3f d6 87 c6 3a 4a 68 c1 3f
       0.1506910622119903 0.1359951769819065
000730 50 f0 72 0a c7 6a c3 3f 2c 78 39 85 e6 31 c5 3f
       0.1516960907955558 0.16558534150220916
000740 fa d0 58 df 9c 9b c4 3f f6 a1 b1 3e 13 ae c6 3f
       0.16099892526256793 0.1771873527643632
000750 cd 29 78 b9 38 79 c7 3f da b6 6d db b8 2d c9 3f
       0.18338688903925374 0.19670782770429335
000760 17 bc 9c 62 dc 18 c9 3f 37 05 2f c7 c9 3b cb 3f
       0.19607119383860613 0.21276209092870044
000770 c7 fa d0 98 c0 71 c8 3f 2c d6 87 66 2d b1 c8 3f
       0.1909714456723661 0.19290702349069144
000780 49 92 24 29 70 62 cd 3f 6e db b6 ad ce ac cd 3f
       0.2295665932553155 0.23183616144316538
000790 70 db b6 dd 49 5a d0 3f 9a 53 f0 12 63 b6 ca 3f
       0.25551077510629394 0.20869100975747018
0007a0 2e a7 e0 05 a6 c7 c7 3f 40 4b c1 cb ed b5 7b bf
       0.18578028952588838 -0.006765297785096547
0007b0 ea 43 63 5d e8 e5 c4 bf bc 9c 82 f7 dc 06 ca bf
       -0.163266225432863 -0.20333444676837142
0007c0 08 2f a7 40 f4 80 c7 bf 00 00 00 80 a0 d7 b3 bf
       -0.18362286717307819 -0.07750895619392395
0007d0 00 00 00 e0 fb 1c c8 bf a2 b1 3e 74 07 cb cd bf
       -0.1883845180273056 -0.23275845695515068
0007e0 30 a7 e0 85 dd 71 c6 bf 80 68 ac 0f 1d bc 40 3f
       -0.1753498939227085 0.0005107061291227538
0007f0 cb 29 78 f9 2b 80 be 3f e6 14 bc 1c 28 5b c5 3f
       0.11914324608384345 0.16684438136159158
